…
     "execution_count": 236,
     "metadata": {},
     "output_type": "execute_result"
    }
   ],
   "source": [
    "X_train.shape[1]"
   ]
  },
  {
   "cell_type": "code",
   "execution_count": 309,
   "metadata": {
    "scrolled": false
   },
   "outputs": [
    {
     "name": "stdout",
     "output_type": "stream",
     "text": [
      "_________________________________________________________________\n",
      "Layer (type)                 Output Shape              Param #   \n",
      "=================================================================\n",
      "dense_158 (Dense)            (None, 100)               10900     \n",
      "_________________________________________________________________\n",
      "dense_159 (Dense)            (None, 100)               10100     \n",
      "_________________________________________________________________\n",
      "dense_160 (Dense)            (None, 90)                9090      \n",
      "_________________________________________________________________\n",
      "dense_161 (Dense)            (None, 90)                8190      \n",
      "_________________________________________________________________\n",
      "dense_162 (Dense)            (None, 80)                7280      \n",
      "_________________________________________________________________\n",
      "dense_163 (Dense)            (None, 80)                6480      \n",
      "_________________________________________________________________\n",
      "dense_164 (Dense)            (None, 70)                5670      \n",
      "_________________________________________________________________\n",
      "dense_165 (Dense)            (None, 70)                4970      \n",
      "_________________________________________________________________\n",
      "dense_166 (Dense)            (None, 60)                4260      \n",
      "_________________________________________________________________\n",
      "dense_167 (Dense)            (None, 60)                3660      \n",
      "_________________________________________________________________\n",
      "dense_168 (Dense)            (None, 50)                3050      \n",
      "_________________________________________________________________\n",
      "dense_169 (Dense)            (None, 50)                2550      \n",
      "_________________________________________________________________\n",
      "dense_170 (Dense)            (None, 40)                2040      \n",
      "_________________________________________________________________\n",
      "dense_171 (Dense)            (None, 40)                1640      \n",
      "_________________________________________________________________\n",
      "dense_172 (Dense)            (None, 30)                1230      \n",
      "_________________________________________________________________\n",
      "dense_173 (Dense)            (None, 30)                930       \n",
      "_________________________________________________________________\n",
      "dense_174 (Dense)            (None, 20)                620       \n",
      "_________________________________________________________________\n",
      "dense_175 (Dense)            (None, 20)                420       \n",
      "_________________________________________________________________\n",
      "dense_176 (Dense)            (None, 10)                210       \n",
      "_________________________________________________________________\n",
      "dense_177 (Dense)            (None, 10)                110       \n",
      "_________________________________________________________________\n",
      "dense_178 (Dense)            (None, 3)                 33        \n",
      "=================================================================\n",
      "Total params: 83,433\n",
      "Trainable params: 83,433\n",
      "Non-trainable params: 0\n",
      "_________________________________________________________________\n"
     ]
    }
   ],
   "source": [
    "# model = Sequential()\n",
    "# model.add(Dense(100, input_dim=X_train.shape[1], activation='relu')) # hidden layer 1\n",
…
